tensorflow/lite/tools/optimize/testdata/single_conv_weights_min_minus_127_max_plus_127.bin (tflite, 1352 bytes, 2 tensors)

conv_weights f4 [5, 3, 3, 3]
0	0xc2fe0000	-127.0
1	0x42fe0000	127.0
2	0x42ce0000	103.0
3	0x42aa0000	85.0
4	0xc2be0000	-95.0
5	0x42f00000	120.0
6	0x42d20000	105.0
7	0xc28e0000	-71.0
8	0x42080000	34.0
9	0xc2440000	-49.0
10	0xc2ce0000	-103.0
11	0x41400000	12.0
12	0xc2600000	-56.0
13	0xc29e0000	-79.0
14	0x41400000	12.0
15	0x42fc0000	126.0
16	0x42ea0000	117.0
17	0x42fe0000	127.0
18	0x42ee0000	119.0
19	0x42ee0000	119.0
20	0xc2ae0000	-87.0
21	0x42680000	58.0
22	0x42f00000	120.0
23	0x42f60000	123.0
24	0x42ea0000	117.0
25	0xc2c60000	-99.0
26	0xc0800000	-4.0
27	0xc2fe0000	-127.0
28	0x42fe0000	127.0
29	0xc2500000	-52.0
30	0xc2b60000	-91.0
31	0xc2fc0000	-126.0
32	0xc1a00000	-20.0
33	0xc2c60000	-99.0
34	0x42d40000	106.0
35	0x42100000	36.0
36	0x42960000	75.0
37	0x42c00000	96.0
38	0x42ea0000	117.0
39	0x3f800000	1.0
40	0x42200000	40.0
41	0x42980000	76.0
42	0xc2ec0000	-118.0
43	0xc20c0000	-35.0
44	0x42b20000	89.0
45	0xc2920000	-73.0
46	0x42de0000	111.0
47	0x42380000	46.0
48	0x42380000	46.0
49	0xc1d00000	-26.0
50	0x42840000	66.0
51	0x42740000	61.0
52	0x42780000	62.0
53	0xc0c00000	-6.0
54	0xc2fe0000	-127.0
55	0x42fe0000	127.0
56	0x42200000	40.0
57	0xc2a60000	-83.0
58	0xc2a80000	-84.0
59	0xc24c0000	-51.0
60	0x42540000	53.0
61	0x42980000	76.0
62	0xc2ee0000	-119.0
63	0xc23c0000	-47.0
64	0xc2640000	-57.0
65	0x42be0000	95.0
66	0xc2e80000	-116.0
67	0xc2b20000	-89.0
68	0xc2ce0000	-103.0
69	0x42fc0000	126.0
70	0x42a40000	82.0
71	0x42a40000	82.0
72	0x42480000	50.0
73	0xc2c00000	-96.0
74	0xc23c0000	-47.0
75	0x42860000	67.0
76	0x42e60000	115.0
77	0xc0000000	-2.0
78	0xc2ee0000	-119.0
79	0x42280000	42.0
80	0xc1800000	-16.0
81	0xc2fe0000	-127.0
82	0x42fe0000	127.0
83	0xc2940000	-74.0
84	0x42880000	68.0
85	0xc2e40000	-114.0
86	0x42960000	75.0
87	0xc2ec0000	-118.0
88	0xc2a00000	-80.0
89	0xc1b80000	-23.0
90	0xc0400000	-3.0
91	0xc1300000	-11.0
92	0xc1600000	-14.0
93	0xc0400000	-3.0
94	0x42140000	37.0
95	0x42960000	75.0
96	0x42540000	53.0
97	0x42d60000	107.0
98	0x42820000	65.0
99	0x429c0000	78.0
100	0xc2640000	-57.0
101	0x42500000	52.0
102	0x42380000	46.0
103	0xc2fe0000	-127.0
104	0x42200000	40.0
105	0x42580000	54.0
106	0xc2ac0000	-86.0
107	0x42140000	37.0
108	0xc2fe0000	-127.0
109	0x42fe0000	127.0
110	0x00000000	0.0
111	0x428c0000	70.0
112	0x42ea0000	117.0
113	0x41980000	19.0
114	0xc2240000	-41.0
115	0x42c00000	96.0
116	0x41b00000	22.0
117	0x429e0000	79.0
118	0xc28c0000	-70.0
119	0xc2f60000	-123.0
120	0x42800000	64.0
121	0x42a40000	82.0
122	0xc2780000	-62.0
123	0x42a40000	82.0
124	0x40000000	2.0
125	0x42e00000	112.0
126	0x424c0000	51.0
127	0xc1b00000	-22.0
128	0x42c80000	100.0
129	0xc1a00000	-20.0
130	0x42ea0000	117.0
131	0x41a80000	21.0
132	0x41400000	12.0
133	0xc2ae0000	-87.0
134	0xc2b80000	-92.0

conv_bias f4 [5]
0	0x42860000	67.0
1	0xc2b20000	-89.0
2	0xc28a0000	-69.0
3	0xc2780000	-62.0
4	0x429e0000	79.0
