tensorflow/lite/python/optimize/test_data/mobilenet_like_model.bin (tflite, 2484 bytes, 6 tensors)

conv2d_8/Conv2D_bias f4 [3]
000000 00 00 00 00 00 00 00 00 00 00 00 00
       0.0 0.0 0.0

conv2d_8/kernel f4 [3, 3, 3, 3]
000000 69 3f 99 3e 81 3c 92 3e e8 3a 7f bd 98 e7 a6 be
       0.2993119 0.28561786 -0.062312037 -0.32598567
000010 b8 a3 85 be 16 35 dc bd e8 69 a0 be 0e 25 8d be
       -0.2610147 -0.10752313 -0.313308 -0.27567333
000020 98 a6 7c bd 58 a0 2d 3d cc 17 90 3d f6 fb db bd
       -0.061682314 0.042389244 0.07035789 -0.10741417
000030 a0 1c 40 be 93 3e 9a be 06 d4 1f 3e f6 5b 14 be
       -0.1876092 -0.30125865 0.15608224 -0.14488205
000040 6b 38 9d be e0 a8 c7 bd 73 71 8c be aa 8e 02 3e
       -0.30707106 -0.09749007 -0.27430305 0.12749735
000050 73 98 99 be 16 56 73 be d0 66 83 bc 2a 34 32 3e
       -0.29999122 -0.23763308 -0.016040236 0.17402712
000060 16 7c 8a be 0b 81 85 3e 40 ae 7c 3d 40 7e 9e bd
       -0.27047795 0.26075014 0.061689615 -0.07738924
000070 83 e5 98 be 16 37 ac bd f6 4b 17 be 4c 85 a4 bd
       -0.29862604 -0.08408944 -0.1477507 -0.08033237
000080 0c fa cd 3d d6 c9 7c be 6b 83 7a be c2 2f 64 3e
       0.10057458 -0.2468637 -0.24464194 0.22283843
000090 25 af 9e 3e c1 84 97 3e 60 4f 6d bc 16 fd 88 be
       0.30993 0.2959347 -0.0144842565 -0.2675559
0000a0 2e 5c 87 be 00 a2 8c be b0 7c e3 3c fb 11 49 be
       -0.26437515 -0.27467346 0.027769417 -0.19635765
0000b0 f3 4d 82 be 00 ad 6a 3d 4c 18 c0 bd 50 18 b7 3c
       -0.25450096 0.057293892 -0.09379634 0.02235046
0000c0 00 46 55 3c ac 57 c6 bd 80 33 52 bd 12 14 5d 3e
       0.013017178 -0.09684691 -0.051318645 0.21589687
0000d0 e0 7d 3f be 34 4a 90 3d da cb 0e 3e cb 9e a9 3e
       -0.18700361 0.07045403 0.1394495 0.33128962
0000e0 40 6b 17 3d 8b 4e 5e be e6 2d 51 3e c0 8c 68 3d
       0.036967516 -0.2170965 0.20427665 0.056774855
0000f0 7b ff 98 3e 8c d7 d7 3d f6 dd 4c 3e 80 1f e1 bc
       0.29882416 0.10539159 0.20006546 -0.02748084
000100 14 83 85 3d de 33 aa be db 2c 5a be c0 b2 1e be
       0.06519142 -0.33242697 -0.21306174 -0.15497875
000110 c0 e8 5d bd 06 71 6a 3e 2c 4e d0 3d f6 db 7e 3e
       -0.054177046 0.22894678 0.1017116 0.24888596
000120 68 da 31 bd 6d 1c 98 3e c8 ec a2 be 36 17 22 3e
       -0.04342118 0.29709187 -0.31821275 0.15829167
000130 2a 39 02 3e 56 f1 f0 bd 36 8f 8a be a6 6f 28 3e
       0.12717119 -0.11764781 -0.27062386 0.1644884
000140 56 55 67 3e
       0.22591147

separable_conv2d/depthwise_kernel f4 [1, 3, 3, 3]
000000 c4 49 a0 3e 61 1d 32 be 75 76 5f be 94 db 44 3e
       0.3130628 -0.1739402 -0.21822532 0.19224387
000010 00 21 47 3e 5f 58 b2 be 9c 52 a4 3e 22 84 97 be
       0.19446182 -0.34833047 0.32094276 -0.29592997
000020 f0 80 2a be b6 e2 08 be a8 ed 29 3e 3e b3 bc 3e
       -0.16650748 -0.13367733 0.16594565 0.368555
000030 c0 25 9e bc 18 44 95 3e 3c 96 25 be a8 0b 81 3d
       -0.01930511 0.29153514 -0.16170591 0.063010514
000040 4c 88 c2 3e 8c 2a 9f 3d ec 3c 69 3e 70 70 15 3e
       0.3799461 0.07771787 0.22777146 0.14593673
000050 10 8b 61 bd 8f 00 6e be 4c 25 e0 bd 18 b7 d8 3d
       -0.05506426 -0.232424 -0.10944614 0.10581797
000060 10 ca e1 bc e0 6b dc bc 86 42 47 be
       -0.027562171 -0.026906908 -0.1945897

separable_conv2d/pointwise_kernel f4 [3, 1, 1, 3]
000000 80 30 5f 3d 90 d1 1d 3f 00 f7 9d be 38 19 d3 be
       0.054489613 0.6164789 -0.3085251 -0.41230178
000010 00 56 25 bd 70 6a 11 be 34 58 08 3f b0 37 aa be
       -0.04036522 -0.14200759 0.5325959 -0.3324561
000020 10 d0 62 be
       -0.22149682

separable_conv2d/separable_conv2d/depthwise_bias f4 [3]
000000 00 00 00 00 00 00 00 00 00 00 00 00
       0.0 0.0 0.0

separable_conv2d/separable_conv2d_bias f4 [3]
000000 00 00 00 00 00 00 00 00 00 00 00 00
       0.0 0.0 0.0
